data/converted_model.tflite (tflite, 993056 bytes, 14 tensors)

MatMul_1_bias f4 [128]
000000 06 ef 07 3e 0e 54 c9 3d 0b 4f a0 3d 70 42 38 3d
       0.13274774 0.09830485 0.07827576 0.044985235
000010 0d 60 21 3e af fa 74 3d 80 e9 09 3e fe fa 80 3d
       0.15759297 0.059809383 0.1346798 0.06297873
000020 2e 18 03 3e 72 b4 9e 3d 49 24 ce 3d d2 d4 c3 3d
       0.12802193 0.07749261 0.100655146 0.09562077
000030 cc c8 d8 3d 0a 96 c5 3d a7 ae d9 3d 74 ca 93 3d
       0.10585174 0.09647758 0.106290154 0.07216349
000040 6c f1 e6 3d 90 05 06 3e a0 7a 32 3e b9 8b bd 3d
       0.11276516 0.1308806 0.1742959 0.092551656
000050 94 16 ec 3d 2e d4 11 3e 08 bb d0 3d 1c 13 82 3d
       0.11527744 0.14241096 0.101919234 0.06351301
000060 49 0d a8 3d 79 9e cd 3d 3a ec f7 3d 2f 4c d8 3d
       0.08205659 0.10039992 0.121056035 0.10561406
000070 24 7e 23 3e f1 32 77 3d a7 33 bf 3d 98 c0 de 3d
       0.15966088 0.060351316 0.09336024 0.10876578
000080 cc 8c 92 3d 0a 58 8e 3d af dc a0 3d 39 66 a2 3d
       0.07155761 0.06950386 0.07854592 0.07929654
000090 24 05 c7 3d 9e 92 48 3d 91 47 a4 3d cf ce 1e 3e
       0.09717777 0.04896795 0.08021463 0.15508579
0000a0 f2 ba d2 3d 63 78 e0 3d 6a 35 6a 3d 9f ae 1b 3e
       0.10289563 0.10960462 0.057179846 0.15203331
0000b0 25 ec dc 3d c6 36 03 3e aa cf df 3d 77 ac b2 3d
       0.107872285 0.12813863 0.10928281 0.08724301
0000c0 36 c9 e9 3d c1 db f0 3d aa cf 13 3e ba c7 cc 3d
       0.11415331 0.11760665 0.14434686 0.09999032
0000d0 6b a3 0f 3e 5d 07 8d 3d 93 7b 84 3d b3 a2 f2 3d
       0.14027183 0.0688617 0.064688824 0.11847439
0000e0 f6 97 8c 3d c9 58 85 3d 21 2c 48 3d 3a 6c d0 3d
       0.06864922 0.06511075 0.04887021 0.101768926
0000f0 f8 58 b2 3d 3a da 17 3e 69 26 d1 3d 31 40 c2 3d
       0.08708376 0.1482934 0.10212404 0.094849
000100 a6 d2 e9 3d 5a 73 0d 3e 02 32 ac 3d 38 ad f4 3d
       0.11417131 0.13813534 0.08407976 0.11947101
000110 c6 d1 2e 3e 61 79 dd 3d 03 68 ea 3d a4 8c 9a 3d
       0.1707221 0.10814167 0.1144562 0.07546356
000120 1c a2 f9 3d e6 d6 d8 3d 44 2d 40 3e af 5d eb 3d
       0.12189123 0.105878636 0.18767267 0.11492478
000130 50 2f 04 3e b9 05 80 3d d7 e9 ea 3d c9 19 a7 3d
       0.12908673 0.062510915 0.11470383 0.08159215
000140 71 df c6 3d ef f4 1e 3e 1c 2c c6 3d bb d8 be 3d
       0.09710587 0.15523122 0.09676382 0.09318682
000150 12 66 8d 3d 7a f0 e4 3d 34 de a0 3d b5 d6 ac 3d
       0.06904234 0.1117868 0.07854882 0.084393896
000160 af ac d2 3d 6a d4 a4 3d 65 aa 0a 3e 2d 8c 21 3e
       0.10286843 0.08048327 0.13541563 0.15776129
000170 17 23 97 3d 47 cf 05 3e 68 db dc 3d 1e 2f d2 3d
       0.0737974 0.13067351 0.10784036 0.10262893
000180 88 95 16 3e 4f c7 c5 3d 73 41 9a 3d e5 97 f4 3d
       0.14705479 0.09657156 0.07532015 0.11943034
000190 3c 2b b0 3d 63 87 d1 3d 2d e0 20 3e f5 5c be 3d
       0.08601996 0.10230901 0.15710516 0.09295074
0001a0 ad 6f b1 3d 1d 42 ec 3d 5d 68 21 3e d7 d9 f9 3d
       0.086638786 0.115360476 0.15762468 0.12199753
0001b0 6b fe b4 3d 2d 96 15 3d 7c 28 c8 3d 07 04 e1 3d
       0.08837589 0.036520172 0.09773347 0.10987096
0001c0 f9 82 31 3e 88 9b e0 3d e1 cb ae 3d f0 f6 ac 3d
       0.17335118 0.10967165 0.085349806 0.08445537
0001d0 4e 24 ec 3d aa 47 12 3e d2 ec b4 3d 47 88 8d 3d
       0.11530362 0.1428515 0.088342324 0.069107585
0001e0 48 eb ce 3d 9d 77 bf 3d d1 0d 86 3d a8 75 d3 3d
       0.1010347 0.09348986 0.06545604 0.103251755
0001f0 fe 42 f5 3d 3a c9 15 3e e3 b0 94 3d be 44 e5 3d
       0.11975668 0.14627543 0.07260301 0.11194752

MatMul_2_bias f4 [10]
000000 eb 7f 61 3c c8 a3 4f bb 54 49 9d 3d 4c 0a 19 3e
       0.013763408 -0.0031683315 0.07680002 0.14945334
000010 2e 98 a7 3d cd 90 fe 3b ea 61 32 3e 57 e0 38 3e
       0.08183323 0.0077687264 0.17420164 0.18054329
000020 60 43 30 3e d5 9a bf 3d
       0.17213202 0.09355704

MatMul_bias f4 [256]
000000 5e df c1 3d 5d 42 de 3d 6d b8 c9 3d a5 be d5 3d
       0.09466432 0.108525015 0.098496296 0.10436753
000010 6d d8 c4 3d 34 55 bf 3d ee 1b cb 3d 8d 1a c2 3d
       0.096115924 0.09342423 0.099174365 0.094777204
000020 39 0d b6 3d 1f 9b c8 3d 1b 42 c6 3d 48 06 c3 3d
       0.08889241 0.09795212 0.09680577 0.095226824
000030 c6 fe b2 3d 02 1f c5 3d 34 37 c0 3d 5f fd cb 3d
       0.087400004 0.09625055 0.09385529 0.09960436
000040 e3 9e c1 3d 1f 05 b7 3d 0a 39 cb 3d 15 2c cc 3d
       0.09454133 0.08936524 0.09922989 0.099693455
000050 f1 7f b1 3d e0 42 b9 3d d0 32 d2 3d 40 a8 ba 3d
       0.08666981 0.090459585 0.10263598 0.091141224
000060 26 ff bb 3d eb e8 c7 3d b4 c6 cf 3d 37 ff da 3d
       0.09179525 0.097612225 0.101453215 0.106932096
000070 e0 b0 bb 3d c2 3a d6 3d 3c 28 b6 3d eb ea c8 3d
       0.091645956 0.10460426 0.08894393 0.09810432
000080 8c 7b c6 3d db 7a d6 3d 9d e4 ce 3d f1 a9 c3 3d
       0.096915334 0.104726516 0.10102198 0.09553898
000090 a6 e2 d2 3d 51 25 ba 3d e8 9b c2 3d d1 f6 d3 3d
       0.10297136 0.09089149 0.09502393 0.10349811
0000a0 71 cb c1 3d bb ca c2 3d 8c a0 c7 3d 44 04 c4 3d
       0.094626315 0.09511324 0.09747419 0.09571126
0000b0 81 e6 d1 3d 65 db d9 3d 36 b0 be 3d a9 ab d8 3d
       0.10249043 0.10637549 0.09310953 0.105796166
0000c0 e2 4b bd 3d 7a 76 cd 3d 17 e0 c3 3d 73 40 ad 3d
       0.09242989 0.10032363 0.09564226 0.08459558
0000d0 94 b3 c9 3d c5 6d c0 3d 6c c9 ae 3d c7 db b7 3d
       0.09848705 0.09395937 0.08534512 0.08977466
0000e0 bc e9 c5 3d 9a a4 b7 3d ee 31 d2 3d 4e 3a c9 3d
       0.09663722 0.08966942 0.102634296 0.09825574
0000f0 5d 13 bc 3d d3 b2 bd 3d 02 b9 c2 3d a4 27 b7 3d
       0.09183381 0.09262624 0.09507944 0.08943108
000100 e8 81 b5 3d 2a 92 bc 3d 50 61 c8 3d 9a 44 ce 3d
       0.08862668 0.09207566 0.09784186 0.100716785
000110 49 57 cf 3d bb 3f cb 3d 05 b0 d7 3d da 41 df 3d
       0.1012407 0.09924265 0.1053162 0.10901232
000120 06 5f c8 3d 6f 82 c2 3d ea f4 d7 3d f7 c6 bb 3d
       0.09783749 0.094975345 0.105447605 0.09168809
000130 1a ca d1 3d f9 09 c4 3d a0 18 a5 3d 82 d9 ce 3d
       0.10243626 0.09572215 0.080613375 0.1010008
000140 8d 8c a9 3d 0f 97 a2 3d 07 8a c9 3d 20 a5 c1 3d
       0.08278761 0.079389684 0.0984078 0.09455323
000150 7b b8 bd 3d ed 89 ae 3d e2 4e c4 3d fa 26 b8 3d
       0.092637025 0.08522401 0.09585358 0.08991809
000160 a0 37 b3 3d a7 30 d3 3d 8a 8a d1 3d a7 e4 cc 3d
       0.08750844 0.10312014 0.10231502 0.100045495
000170 3e c7 bf 3d d2 5f a4 3d 40 3b b5 3d d3 2d b7 3d
       0.09364174 0.08026089 0.08849192 0.08944287
000180 34 e8 a6 3d fa b8 ce 3d 9a c5 c4 3d db 8f d1 3d
       0.08149758 0.10093875 0.09608002 0.102325164
000190 e4 83 ce 3d 3d 62 d9 3d e0 67 c4 3d ec d4 b8 3d
       0.1008375 0.106144406 0.09590125 0.090249866
0001a0 e3 9c c7 3d 52 61 cf 3d a7 0d bf 3d 47 0e ba 3d
       0.09746721 0.10125984 0.09328776 0.090847544
0001b0 e0 8f cf 3d 0f e3 b2 3d 5d 9b bc 3d c5 bb c9 3d
       0.10134864 0.08734714 0.09209321 0.09850267
0001c0 b6 e4 cc 3d 36 a3 d5 3d ae 15 bc 3d ff 9b d2 3d
       0.10004561 0.10431521 0.091838226 0.1028366
0001d0 93 95 e3 3d db d6 ca 3d 64 72 bb 3d 41 a1 d9 3d
       0.111125134 0.09904262 0.09152678 0.1062646
0001e0 13 2d c7 3d 39 08 c7 3d 33 ec c8 3d 05 99 c6 3d
       0.09725394 0.09718365 0.098106764 0.09697155
0001f0 f8 5a c5 3d 54 be b0 3d 52 62 ca 3d 56 7e bd 3d
       0.096364915 0.08630052 0.09882034 0.09252612
000200 ae 58 b5 3d ff 8a d1 3d 07 2e d7 3d dc bd c4 3d
       0.08854805 0.102315895 0.10506826 0.09606525
000210 c4 e7 be 3d 6e 88 c7 3d 06 73 ce 3d b1 70 b0 3d
       0.093215495 0.09742819 0.10080533 0.08615244
000220 76 77 ca 3d 6e 74 bd 3d 3b 42 cc 3d 55 a1 c6 3d
       0.098860666 0.09250723 0.0997357 0.096987404
000230 99 d6 b9 3d 9a 4c ca 3d 56 92 dd 3d 15 49 c5 3d
       0.090741344 0.09877892 0.10818927 0.0963308
000240 8b 75 d0 3d b9 c3 c4 3d 93 b6 c5 3d ad cb c4 3d
       0.101786695 0.09607644 0.09653964 0.096091606
000250 f2 c6 b9 3d 9d 49 c5 3d 2e 6e b4 3d 07 2c bf 3d
       0.09071149 0.09633181 0.088100776 0.093345694
000260 84 9c d4 3d d0 64 c9 3d 8e 0d a6 3d 0b 49 c1 3d
       0.103814155 0.098336816 0.08108054 0.0943776
000270 f4 6b c7 3d 43 d1 c1 3d b5 ed e2 3d b8 7b c5 3d
       0.09737387 0.09463742 0.11080495 0.09642738
000280 13 8f c0 3d 89 1e cf 3d 96 4c ba 3d dd d4 cb 3d
       0.09402289 0.10113246 0.09096639 0.0995271
000290 3a 4b d9 3d 67 a9 d4 3d a0 d4 b0 3d f1 57 bc 3d
       0.106100515 0.103838734 0.08634305 0.09196461
0002a0 7c cd c4 3d df 58 d0 3d 8b 8e b0 3d f3 1c ca 3d
       0.096095055 0.10173201 0.08620938 0.09868803
0002b0 57 dd c6 3d 9f fe bb 3d ee c4 c4 3d 60 31 bc 3d
       0.09710186 0.091794245 0.09607874 0.09189105
0002c0 7e 64 b9 3d 95 36 bb 3d e5 aa cb 3d f7 d4 c9 3d
       0.090523705 0.0914127 0.09944705 0.09855073
0002d0 45 6e d4 3d ac d8 d0 3d d2 33 ce 3d 02 0b c2 3d
       0.10372595 0.10197577 0.10068478 0.09474756
0002e0 7d 77 c4 3d 52 9f cd 3d 1e 20 ca 3d 49 a5 d7 3d
       0.09593103 0.100401536 0.09869407 0.105295725
0002f0 97 47 b7 3d fe 4a d7 3d d5 f3 c6 3d 0f d3 c9 3d
       0.089492016 0.105123505 0.09714476 0.09854709
000300 2a 6e d6 3d f1 db bb 3d e3 17 b1 3d e5 ee ca 3d
       0.10470231 0.0917281 0.08647134 0.09908847
000310 60 42 c6 3d bb 9a f1 3d e4 f3 bd 3d 64 fc c8 3d
       0.09680629 0.117970906 0.09275034 0.09813765
000320 18 18 c7 3d 9b 0c d2 3d ed d2 ca 3d 3c 97 c9 3d
       0.097213924 0.102563106 0.09903512 0.09843299
000330 6b 19 b9 3d 92 cf af 3d 5c a0 c1 3d 46 55 d5 3d
       0.09038051 0.08584513 0.09454414 0.10416655
000340 2d 46 b6 3d 74 6e dc 3d 96 dc c3 3d 8b e7 be 3d
       0.08900104 0.10763255 0.09563558 0.09321507
000350 71 7b c7 3d bc 96 b4 3d 8d 6f c7 3d 8c ca c2 3d
       0.097403415 0.08817813 0.097380735 0.09511289
000360 a4 64 bb 3d 46 ef b2 3d 13 1b b1 3d 86 bb c9 3d
       0.09150055 0.08737044 0.08647742 0.098502204
000370 0e db b5 3d d4 1b 9d 3d ea 19 bb 3d 40 2b c2 3d
       0.08879672 0.076713234 0.09135802 0.094809055
000380 d2 3b d9 3d d3 9f c9 3d cb 9c ca 3d 7c 58 ba 3d
       0.10607113 0.09844937 0.09893187 0.09098908
000390 a2 99 c3 3d 7c bd b9 3d 8d 12 bd 3d 89 ab e8 3d
       0.095507875 0.090693444 0.09232054 0.11360843
0003a0 9b 53 dc 3d 26 d1 bb 3d 9c 82 d1 3d 0e cd b2 3d
       0.10758134 0.09170751 0.1022999 0.08730517
0003b0 48 3e c3 3d 9c fd b4 3d aa 18 c4 3d af 91 b8 3d
       0.095333636 0.08837435 0.09575017 0.09012162
0003c0 ec 96 bb 3d 49 36 cf 3d 68 01 cd 3d 55 a0 c6 3d
       0.091596454 0.10117776 0.10010034 0.0969855
0003d0 32 8d be 3d fa 90 d9 3d 36 d2 c4 3d c2 ad c9 3d
       0.093042746 0.10623355 0.09610407 0.09847595
0003e0 8f 17 bd 3d 1b da c5 3d e8 80 ba 3d 23 fe ba 3d
       0.09233009 0.09660741 0.09106618 0.09130504
0003f0 3c b6 c7 3d 8b 39 b9 3d 44 b2 c1 3d 0b 1d ad 3d
       0.09751555 0.090441786 0.094578296 0.08452805

Variable f4 [32, 3, 3, 3]
000000 74 6c 27 3d c9 65 5e bd a9 ef 18 be 9d a4 d8 bb
       0.040874913 -0.05429629 -0.14935173 -0.0066114203
000010 49 83 d4 bd 19 a0 95 3d 04 e5 e4 bd 8f ff 53 3d
       -0.10376603 0.07305927 -0.11176494 0.05175739
000020 93 7f 61 3c 3a 10 af 3d 4b 63 00 be 9f 21 54 bd
       0.013763326 0.08548017 -0.12537877 -0.051789876
000030 e1 3d a0 3d dc d2 05 3d 4d eb 60 bc 4a 02 dc 3d
       0.078243025 0.032671794 -0.013727975 0.10742624
000040 cc 91 e5 3d 1e ba f6 39 6c 0e 39 3e 9f ec 74 3b
       0.11209449 0.00047059444 0.18071908 0.0037372482
000050 f2 ed 0f bd 06 fe f6 3a e1 55 a1 bc 63 7f 26 3d
       -0.03513903 0.0018844015 -0.01969427 0.04064883
000060 69 25 74 bd c6 08 8a bd 2f 17 4e be 86 6c 7a bc
       -0.05960599 -0.06739955 -0.20126031 -0.015284663
000070 9a ca 54 3d 82 09 bb 3d f3 8c c9 3d cc 42 86 bc
       0.05195103 0.09132673 0.09841337 -0.016389273
000080 91 68 c4 3d 1f 6e d2 bd be 51 94 bd 97 e3 10 bc
       0.09590257 -0.1027491 -0.072421536 -0.008843324
000090 a7 e9 82 3d 7c 5b 96 bd 01 68 9c bd ef 4a 41 3d
       0.06392222 -0.07341668 -0.07637025 0.047190603
0000a0 a9 b1 4e bd c2 d4 c7 bd 1a 9c 9b 3d d6 67 71 3d
       -0.0504624 -0.09757377 0.075981334 0.058936916
0000b0 30 d7 2b be 5c 1c af 3d 9b b7 be bd fa 45 a6 bd
       -0.16781306 0.08550331 -0.09312364 -0.08118816
0000c0 4b 5e d7 3d f4 fd 12 3e 00 f8 23 3d 40 03 99 3d
       0.10516032 0.14354688 0.040031433 0.07471323
0000d0 a5 6e 2d 3c ce 3c 3f 3e b0 9d a2 3d 0c 2d 13 bb
       0.010585462 0.18675539 0.07940233 -0.002245727
0000e0 6f 9f fd 3d 75 ab bc 3c fb ed 45 3d 52 63 37 be
       0.12383925 0.023030976 0.04832266 -0.17908981
0000f0 8f 83 cb bd 4d ae 4d be fa 0d 64 3d 0d 90 1f 3e
       -0.09937202 -0.20086022 0.05567739 0.15582295
000100 37 e5 8e 3d 36 dc 9e 3d 48 b4 e0 bd a1 48 b2 3b
       0.06977313 0.07756846 -0.10971886 0.005440787
000110 1e 01 40 3d 3e ab ab bd 04 ed be 3d 93 20 96 bc
       0.046876065 -0.08382271 0.09322551 -0.01832608
000120 ec 50 9d 3d 29 09 97 3d 31 6f 49 3e 86 bc ac 3c
       0.0768145 0.07374794 0.19671322 0.021085989
000130 3c 0a b7 bd 50 b5 0b bd d9 ef 67 3d 2e 64 22 3e
       -0.08937499 -0.03410846 0.05662522 0.15858528
000140 3a e5 b3 3d 35 7c 17 3d 82 aa 62 bd 0f a8 e7 bd
       0.08783956 0.036983687 -0.05533839 -0.113113515
000150 91 91 5b 3e 96 37 c9 bd 7e d7 69 be 84 25 09 3d
       0.21442248 -0.09825055 -0.2283611 0.033483043
000160 5e 40 c7 bc 34 95 67 3c 40 a4 d7 3d 88 28 39 3e
       -0.024322685 0.014134694 0.10529375 0.18081868
000170 90 28 41 be d4 e3 b6 3d d2 cd 91 bb bf 1f 24 be
       -0.1886313 0.089301735 -0.0044495845 -0.16027735
000180 ed 8d 16 3d c0 0e e6 bd 7a 72 44 be a6 f4 b5 3d
       0.036756445 -0.11233282 -0.19184294 0.088845536
000190 f1 40 97 3c 5e ae ef bc dc 90 ad 3d ac 45 bd 3d
       0.018463584 -0.02925795 0.08474895 0.092418045
0001a0 ee 4f 14 bd a6 76 e4 3d 36 79 3f be fd 35 05 3e
       -0.03620904 0.11155443 -0.18698582 0.13008876
0001b0 93 75 75 3e 47 61 18 3d 05 3c d6 bd df bd 60 bc
       0.23970632 0.037202146 -0.104606666 -0.013717144
0001c0 e2 83 cf bc 21 02 05 be 4a 10 d0 3d d9 7e df 3d
       -0.025331441 -0.12989093 0.10159357 0.10912866
0001d0 15 0e a7 bd 9b 29 0d 3e 29 38 80 bd e1 29 6a be
       -0.08156983 0.13785402 -0.06260712 -0.22867538
0001e0 10 33 e9 3b ee 15 1e bc 7c 97 d8 bd e0 44 41 3d
       0.007116683 -0.009648783 -0.10575768 0.047184825
0001f0 08 46 af bd 91 ae 03 bc ac 6f ea 3d 0a 95 06 be
       -0.08558279 -0.008037225 0.11447081 -0.13142791
000200 38 74 2b be 51 8e c0 3d 70 e6 db bd a9 e7 21 be
       -0.16743553 0.09402145 -0.10737312 -0.15811028
000210 62 4f 64 3d 73 fa 6c 3d 5c ef 8b 3c 11 67 77 bd
       0.055739768 0.057856034 0.017081909 -0.060401026
000220 19 a2 96 3c 57 a5 e6 3c 96 ef d9 bd 35 f5 47 3e
       0.018387841 0.028155012 -0.106414005 0.19527133
000230 ff d7 8f bd 18 35 71 bc 38 f1 36 be 16 a5 9c bd
       -0.0702362 -0.014722131 -0.17865455 -0.07648675
000240 95 72 3c 3c 10 9f b1 bc fd 28 79 3b b8 b6 15 bd
       0.011501928 -0.021682292 0.0038018816 -0.036551207
000250 7e db b4 3d fe 66 8c 3c a0 20 2a bd 81 82 57 3d
       0.08830927 0.017138954 -0.04153502 0.052614693
000260 76 aa 6c bd fb 86 da 3d 0b 34 4d bc ec 64 18 3e
       -0.05777975 0.10670277 -0.012524615 0.14882249
000270 d5 fd b2 3d e7 65 40 3d 06 1e 0b 3e cf 07 20 bd
       0.08739821 0.04697218 0.13585672 -0.039069947
000280 fb cf 0a be eb 8f 58 bc 58 3c 4c 3e 7f 09 8e 3d
       -0.13555901 -0.0132179065 0.19944894 0.06935405
000290 f4 c1 19 be c2 a2 bc bd 1c 74 bc 3d 6b 93 34 3e
       -0.15015393 -0.09210731 0.092018336 0.1763436
0002a0 47 69 9d bd ce 25 24 3d 1d 6b aa bc 4a 10 88 3c
       -0.07686096 0.040075116 -0.020803029 0.01660933
0002b0 41 f9 b1 3d 3a 88 ae 3c ad 67 ab bc 88 c9 e1 bd
       0.086901195 0.021305192 -0.02092346 -0.11024767
0002c0 b6 30 01 3d ed 34 8e bd 15 59 bb 3c 23 80 de 3d
       0.031540595 -0.069436885 0.022869626 0.10864284
0002d0 55 5c b4 bc 9e f3 35 bc 86 99 29 3d f2 0d c4 bd
       -0.022016684 -0.011105446 0.041406177 -0.09572972
0002e0 37 16 b5 bd 96 05 8a 3c 36 28 d3 bd bf 73 68 bd
       -0.08842128 0.016848367 -0.10310404 -0.05675101
0002f0 ae ba d7 3d c6 e1 0a be 67 3a fa 3b 91 17 df 3b
       0.10533653 -0.13562688 0.0076363566 0.0068082293
000300 4f 59 97 bd 3f 2b 3c be ae 7e 31 be 1e f2 ba bd
       -0.07390081 -0.18375872 -0.1733348 -0.091282114
000310 0a c7 cf bd f3 82 e2 bd a8 79 31 be f6 f0 06 be
       -0.101453856 -0.11060133 -0.17331564 -0.13177857
000320 80 14 2b be a8 27 ce bc 1e c4 2c be af 22 61 be
       -0.16707039 -0.025165394 -0.16871688 -0.21985887
000330 71 c9 27 3e 36 48 9c 3d c9 94 02 be 94 22 e3 3c
       0.16385438 0.07630961 -0.1275207 0.02772645
000340 17 7e 1b be 81 62 a9 bd 8d b7 1d 3c 19 63 b2 3c
       -0.15184818 -0.08270741 0.009626281 0.02177577
000350 76 7e 3c be f2 be 19 bd 2f 1c 70 bd 32 36 e9 3c
       -0.18407616 -0.037535615 -0.058620628 0.028468225
000360 2b 68 12 bd 7b 04 20 3e 8d 46 f0 bb 34 3c fd 3d
       -0.035743874 0.15626709 -0.007332629 0.123649985
000370 55 78 0d 3e d2 c1 63 3c 76 99 2f bc 01 4f 1e bd
       0.13815434 0.013901191 -0.01071774 -0.038649563
000380 76 64 32 3d 6c bb 2b 3d a8 eb 84 3d 69 52 ac 3d
       0.04355284 0.041926786 0.0649026 0.08414156
000390 90 c7 74 3d 51 67 97 3b 37 7b 26 be af 31 f3 3d
       0.05976063 0.0046204706 -0.1625794 0.11874711
0003a0 d0 ea 95 bc c1 76 21 3e 77 0c f2 bc 1d e3 22 3d
       -0.018300444 0.15767957 -0.02954696 0.039767373
0003b0 33 2e 12 bd 8f 1b 85 bb 1d 77 c3 bd db 50 91 bd
       -0.03568859 -0.004062123 -0.095442034 -0.070955
0003c0 b1 90 0c bd ee ad a4 3d c2 c8 df 3d b2 7b dd bd
       -0.034317676 0.08040987 0.109269634 -0.10814609
0003d0 f4 b0 44 3e a0 8f 56 3d a6 27 5f 3d f5 0b 6b bd
       0.19208127 0.052383065 0.05448117 -0.05738445
0003e0 7f 9b 30 bd b0 9a 14 3e 62 48 95 bd 5e 0b 63 3d
       -0.043117043 0.14512134 -0.072891966 0.055430762
0003f0 44 22 11 be 65 56 ea bb aa 89 18 be e8 91 46 3e
       -0.14173228 -0.0071514123 -0.14896265 0.19391596

Variable_10/transpose f4 [128, 256]
000000 d8 10 ae 3c dc de 16 be 8b 70 95 bb f3 b9 c8 bc
       0.021248266 -0.14733452 -0.0045605353 -0.02450273
000010 cd 69 62 3d 96 3b 1b be 4a 7c 14 be d4 94 d2 bd
       0.05527668 -0.15159449 -0.14500538 -0.10282293
000020 59 74 90 bd dd 73 0b be a0 1d 51 be 67 bd cf 3c
       -0.070534416 -0.13618417 -0.20421457 0.025358869
000030 82 ee ea bc 41 d0 51 3d a6 2e e4 bd 28 f0 95 3c
       -0.028678183 0.051223997 -0.1114171 0.018302992
000040 78 da 03 be a3 ac b9 3b 90 c1 b9 3c 06 e6 18 bc
       -0.12876308 0.005666332 0.022675306 -0.009332186
000050 f3 e8 7d 3d 5b d3 a7 bc 85 22 db bc da 5c d2 3d
       0.061989736 -0.020486524 -0.026749859 0.10271616
000060 f2 e2 92 3d 98 74 2f 3e bc fa 2e be 49 05 e1 3b
       0.07172193 0.1713432 -0.17087835 0.006867085
000070 d2 4d ed 3d a2 7c ef 3d 1b 5e 27 be 35 78 e1 bd
       0.11587109 0.11693694 -0.16344492 -0.11009256
000080 a2 c1 70 bd 66 01 1d 3d b2 c0 31 bc 34 a4 fd 3c
       -0.058778413 0.03833141 -0.010849165 0.030962087
000090 20 20 c4 bd 36 a0 3b be 47 d0 1b 3d 78 aa 76 bd
       -0.0957644 -0.18322834 0.038040426 -0.060221165
0000a0 32 23 17 3d 42 e7 80 3c 67 40 37 be f5 60 0d 3d
       0.0368988 0.015735272 -0.17895661 0.034516294
0000b0 8d 01 08 3e 26 7e 42 bd db 5d 1a 3c 53 7c 63 3d
       0.13281842 -0.047483586 0.009421791 0.055538487
0000c0 fa 10 07 bd 36 2f f8 3d b6 4b 1b be fd 82 a1 bc
       -0.032975174 0.1211838 -0.151656 -0.01971578
0000d0 aa d0 21 3e 7e c7 76 be cc 03 9e 3d 3b 46 67 bd
       0.15802255 -0.24099538 0.07715568 -0.05646346
0000e0 49 64 3d 3e 5d 46 09 3e 9d 4c a6 bd 8f 92 6c be
       0.18495287 0.13405748 -0.081200816 -0.23102783
0000f0 53 2d 2c 3d 46 18 0c 3e 2e c5 27 bc 6f 90 14 be
       0.042035412 0.13681135 -0.010239882 -0.14508222
000100 64 c7 2c 3d 1d c6 95 bd 43 4e 1b 3d 27 91 19 be
       0.04218234 -0.07313178 0.037916433 -0.14996777
000110 ce 12 14 be b2 d6 0b be 4e e5 ea 3c 98 da 93 bc
       -0.14460298 -0.13656119 0.028673794 -0.01804857
000120 c4 d4 88 be fd 5a ff bc 06 96 d5 bc ff 1d 41 bc
       -0.26724827 -0.031171316 -0.026072513 -0.011786937
000130 bb c1 20 be 33 d4 fb 3d 78 14 8c 3d 8b e6 ad 3d
       -0.15698902 0.12296333 0.068398416 0.08491238
000140 e4 64 f6 bd 07 17 25 3e 84 a4 5b be 73 19 e9 bc
       -0.12030962 0.16122065 -0.21449476 -0.028454518
000150 21 08 27 bc 44 59 91 bc d8 f5 02 be 90 44 7e 3d
       -0.010194809 -0.01774276 -0.12789094 0.062077105
000160 eb a2 6d 3c 9f 63 9d bd 97 90 f0 3d b9 d3 60 3e
       0.014504175 -0.07685017 0.11746328 0.21955766
000170 0e 00 d3 3a d6 21 bd bc 1a bf ef 3c db f6 a0 bd
       0.0016098039 -0.023087423 0.029265929 -0.07859584
000180 ff eb 76 3b 70 a1 6b 3d 9b f0 d0 3c 02 51 b1 3d
       0.0037677286 0.057527006 0.025505355 0.08658029
000190 7c 63 db bd d2 d4 9b bd 04 04 a9 3b de 91 37 bd
       -0.107123345 -0.07608952 0.0051579494 -0.044816844
0001a0 ac 4c 66 be e3 aa 3a be d7 07 72 3d 6b e6 97 3d
       -0.22490185 -0.1822925 0.059089508 0.074169956
0001b0 60 31 3f be b5 3f 0a 3e aa 89 9e 3d d1 cc 4f 3e
       -0.18671179 0.13500865 0.07741101 0.20292975
0001c0 af d2 d1 3d e7 22 72 3d 79 82 1b be 74 23 68 bc
       0.10245263 0.059115317 -0.1518649 -0.014168609
0001d0 90 eb f9 3b d7 b6 e7 bc 85 52 98 3d 73 e6 42 be
       0.007626958 -0.028285427 0.07437614 -0.19033222
0001e0 fd b9 45 bc 37 cd 09 3e 73 c8 0d bd 9d 14 a5 bd
       -0.012068269 0.1345719 -0.03461499 -0.08060572
0001f0 80 f0 2c bb eb 03 75 3d b5 4e 08 3d e4 ba 54 3e
       -0.0026388466 0.05981819 0.033278186 0.20774418
000200 a0 77 e0 bd c5 7f 55 3d ec ab 3e bc b9 e4 c2 bd
       -0.10960317 0.052123804 -0.011637669 -0.09516282
000210 a1 9b c1 bd f1 b2 21 be ba 91 4d 3d 93 e4 4b 3d
       -0.09453512 -0.15790917 0.050187804 0.049778532
000220 39 3b 14 3e cd 48 64 be bd 54 87 3d 35 ff da 3d
       0.14475717 -0.22293396 0.066079594 0.10693208
000230 20 f8 5a bc 12 49 87 bc ba fb 95 bc 0c ea 78 3d
       -0.013364822 -0.016514335 -0.01830851 0.06077008
000240 d5 95 34 bd 66 8c 06 be 4f e5 d5 3d 34 b5 95 bd
       -0.044088203 -0.13139495 0.10444128 -0.073099524
000250 46 dc c1 3c 2e 93 a5 bd ec 6f b0 3c 84 01 44 3d
       0.023664605 -0.08084713 0.021537744 0.047853008
000260 30 3a 04 be c8 f2 96 3d 62 8c cd bd 00 92 a0 3d
       -0.12912822 0.073705256 -0.100365415 0.07840347
000270 7d a0 12 be df b0 74 bd e1 67 25 be b9 60 c0 3d
       -0.14319034 -0.05973899 -0.16152908 0.093934484
000280 70 a6 ed bd f8 fd c5 bc 70 17 63 bd 2b a3 de 3d
       -0.11604011 -0.024168953 -0.055442274 0.108709656
000290 19 8d e1 bd 11 b5 cb bd 41 9f 3f 3e b4 a9 b9 3d
       -0.1101324 -0.09946645 0.18713094 0.090655714
0002a0 fc 21 cf bd ca 36 a1 bd 34 ea a8 3b e8 5c 80 3d
       -0.10113904 -0.07871778 0.0051548723 0.062677205
0002b0 87 96 2f 3e d2 55 a2 bd 8e a1 b6 3d 0a e2 af bc
       0.17147265 -0.07926525 0.08917533 -0.021470089
0002c0 ab ba c6 bc 62 74 e4 bd e1 f1 4c 3d 00 b5 80 3d
       -0.024258932 -0.11155011 0.05003536 0.06284523
0002d0 fb 6e d3 bc af e6 8f bb a3 62 75 be f4 dc 6d bd
       -0.025809756 -0.0043915133 -0.23963408 -0.058072045
0002e0 b3 24 f9 bb 3b 00 4e 3d 7e 26 5b 3e 5f 07 e3 bd
       -0.007603252 0.05029319 0.21401402 -0.1108539
0002f0 1d 5a ed bd fd 02 19 3e 97 e4 99 bd 95 85 01 be
       -0.11589453 0.14942546 -0.07514303 -0.12648614
000300 80 83 9c bb 3d a4 f3 3c 67 61 6d 3d 24 79 a9 3b
       -0.004776418 0.0297414 0.05795422 0.005171912
000310 de 4c 92 3d 39 d7 ed 3c a2 06 17 be e3 e9 e4 3c
       0.071435675 0.02903329 -0.14748624 0.027943557
000320 a5 f0 dc bd 07 ec e0 3d e9 30 27 3e 3c a5 36 3e
       -0.10788087 0.10982519 0.16327251 0.1783647
000330 79 4d b3 3c a6 80 06 bd d4 79 a3 3c 57 a8 3a 3d
       0.021887528 -0.032837532 0.019955553 0.045570698
000340 19 69 57 3d 33 65 fd 3d ac 8f a0 3d a3 37 e9 3d
       0.052590463 0.12372818 0.07839903 0.11387565
000350 cf b0 62 bd 08 23 b4 bd 23 8d 87 bd 2f cf b2 3d
       -0.0553444 -0.08795744 -0.066187166 0.087309234
000360 e6 50 61 3c 7c d9 a1 bd 78 d7 04 3e 5d 7b 20 be
       0.013752198 -0.0790281 0.1297282 -0.1567206
000370 e5 53 cb 3d 71 dc d4 3d b3 32 57 3d 68 5a 46 be
       0.09928111 0.10393608 0.052538585 -0.19370425
000380 85 58 40 bc 1b d9 24 3d 62 7d 1d bc af 42 0b bc
       -0.011739855 0.04024611 -0.009612413 -0.008499785
000390 b8 9d ee bd a6 ae 83 3d b6 f8 0d be 26 ff d2 3b
       -0.11651176 0.06429796 -0.13864407 0.0064391075
0003a0 bd 40 bf 3c 13 bb 76 3c f6 1e b3 bc 5e e5 19 bd
       0.0233463 0.01505925 -0.02186535 -0.037572257
0003b0 98 aa dc 3c 0f d9 df bd 35 8c e2 3b ec 0e ea bd
       0.026936814 -0.109300725 0.0069136866 -0.11428627
0003c0 fb 5f d9 3d 35 d6 f9 3d d3 54 11 3e 6d 3a 2f be
       0.1061401 0.1219906 0.14192514 -0.17112131
0003d0 00 e6 27 3c 1e 65 ac bd 7e 49 fd 3c c0 bf a1 bd
       0.010247707 -0.08417724 0.030918833 -0.078979015
0003e0 20 82 09 be ee 45 a1 3c bb 11 a2 3a fd 82 9c bd
       -0.13428545 0.019686665 0.0012364903 -0.076421715
0003f0 da fe 19 bd b8 17 ed 3d 77 8e e4 3d 03 36 eb 3d
       -0.03759656 0.115767896 0.111599855 0.11484911

Variable_12/transpose f4 [10, 128]
000000 d0 e0 e1 bc 9f 9b d5 3c ac ab 75 bd 24 6c c7 3d
       -0.02757302 0.026075182 -0.059978172 0.09737423
000010 67 a8 32 be 2c 94 01 3e c8 14 8d bd 96 53 c3 3d
       -0.17447053 0.1265418 -0.06888729 0.09537427
000020 4d d6 ab bd 6f f4 1f be ec 7b 31 bd bf c7 61 3d
       -0.08390484 -0.15620588 -0.04333107 0.055122133
000030 10 66 ee bc cd 5f 04 3e 97 08 60 be d9 c7 43 be
       -0.029101402 0.1292717 -0.21878277 -0.19119205
000040 aa 42 e9 bd a0 3b c0 3d 7e fc f5 bd dc 64 06 be
       -0.11389668 0.093863726 -0.1201105 -0.13124412
000050 2b fa 03 be 59 8c ff 3c 58 21 1a 3e 2c 42 07 3e
       -0.128884 0.031194853 0.15051782 0.13208836
000060 64 80 a5 3c 83 13 8b bd 3c 0e 3a be 7e 53 ce 3c
       0.020202823 -0.06790831 -0.18169492 0.025186297
000070 b0 18 8b bd 59 f0 d6 bc 3e e6 8f 3d 1b 17 92 bd
       -0.06791818 -0.026237654 0.07026337 -0.07133313
000080 2c d1 e0 3d 00 98 09 3e cd d8 aa bd 6f 9c 22 be
       0.10977396 0.1343689 -0.08342133 -0.15879987
000090 ae 55 00 3e 20 d9 1c 3e 32 9a df 3d 01 ef 86 3d
       0.12532684 0.15317202 0.10918082 0.06588555
0000a0 c3 2e fa 3d fd 64 f7 bd 7d b0 18 3e 47 21 0b 3d
       0.1221595 -0.12079809 0.14911075 0.033967283
0000b0 9d c0 f7 3d 6d 4a 16 3e 51 bb b3 3d 6d 38 1c be
       0.12097285 0.14676829 0.08775962 -0.152559
0000c0 f1 73 28 bc e2 8e 9d 3d 89 a0 1c be ec 73 af bd
       -0.010281549 0.07693268 -0.15295614 -0.08567032
0000d0 de 82 1d be d1 41 36 3e e7 90 72 bd f7 35 dc bc
       -0.15381953 0.17798544 -0.05922022 -0.026881201
0000e0 90 ae 42 3e 0c f3 99 3d 4b ec f3 3d 77 24 7a 3d
       0.19011903 0.07517061 0.11910304 0.06106993
0000f0 c7 50 06 be a2 79 87 3d c9 59 9c bc 65 bd 3f bd
       -0.13116752 0.066149965 -0.019085782 -0.04681148
000100 ac 0e 5e bd 69 f7 a0 bd 0b f5 f9 3c cc 49 05 3d
       -0.05421321 -0.0785969 0.030512353 0.03254108
000110 43 9a ff bd 4e fb 9b 3c 99 d4 c0 3d b2 a9 1b be
       -0.12480595 0.01904073 0.0941555 -0.15201452
000120 5b 30 c3 bd 0e 3a a0 3d 76 71 dd bd 18 ee ab bd
       -0.095307074 0.07823573 -0.108126566 -0.08395022
000130 40 d4 61 bd 73 92 6a bd 4d 51 53 bd ef 19 11 3e
       -0.055134058 -0.05726857 -0.051591206 0.14170049
000140 d7 40 38 be 35 99 3c be 2a ff b7 bb f1 f8 93 bd
       -0.17993484 -0.18417819 -0.0056151347 -0.07225216
000150 ca 6f 24 3e 23 90 ed bd 99 b0 56 bc c2 51 c8 bc
       0.16058269 -0.115997575 -0.013103628 -0.024453048
000160 e8 f7 81 3d 0c f2 c9 bc cb 20 9e bd d8 2b 2a bd
       0.063461125 -0.02465155 -0.077210985 -0.04154572
000170 cd 61 13 3d 4a f4 41 bd 73 ea 0a be 29 16 5c 3d
       0.035981942 -0.047352113 -0.13565998 0.05373207
000180 57 6a 2e bd 33 c3 d2 3d d7 c3 0b 3e 84 1f db bc
       -0.042581882 0.102911375 0.13648926 -0.026748426
000190 57 34 8a bd 95 01 d3 3d e9 39 4e be bf d5 d1 3c
       -0.06748264 0.10303036 -0.20139278 0.025614617
0001a0 ed d8 79 3d 38 93 cb 3b 60 ab d3 bd f6 4e 87 bd
       0.060997892 0.006212618 -0.103354216 -0.066068575
0001b0 c6 b8 15 bc 6d d5 cb 3d 3a 08 8a 3d 5b b8 e7 bd
       -0.009138292 0.09952817 0.0673985 -0.1131446
0001c0 34 7e 6c be 64 ed 95 3d de 22 b5 3d 79 e8 27 bc
       -0.23095018 0.07320669 0.08844541 -0.010248297
0001d0 03 5e a0 3c 32 91 c4 bd 5e 9a d0 bd b0 d8 f1 bd
       0.019576078 -0.09598006 -0.10185693 -0.11808908
0001e0 e9 5e 19 3e 6a 8b 43 3e e8 58 0d 3e 64 35 d4 bd
       0.14977612 0.19096151 0.13803446 -0.10361746
0001f0 2c 93 df 3c 28 99 6d bd da e3 31 3e 0e bb 5c 3d
       0.027291857 -0.05800739 0.17372075 0.053889327
000200 18 f8 10 be fe 7f 66 3d 03 7d 9b 3d c8 56 db 3d
       -0.1415714 0.056274407 0.075922035 0.107099116
000210 cb df 1e 3e 07 2a 47 3d 27 8f 88 bd 2d e9 85 3d
       0.15515058 0.048624065 -0.06667929 0.065386154
000220 ff 52 a8 bd 63 96 0f 3e 03 30 c3 bd 17 05 7f 3c
       -0.08218955 0.14022212 -0.09530642 0.015565178
000230 60 89 44 3d 2d d8 9c bc 44 97 1a 3c 9f 2c 1a 3b
       0.047982574 -0.01914605 0.009435479 0.0023525131
000240 19 6f 28 be 9b b9 77 3d 54 40 a6 3d fa 35 ce 3c
       -0.1644863 0.06047974 0.08117738 0.025172222
000250 6b 30 a2 3d 9c 5f 08 3d 70 5a 89 bd ee f4 d9 3d
       0.07919391 0.033294305 -0.06706703 0.1064242
000260 7f 06 a2 bd ff ea ac 3c 5b a9 b5 3d 9c a0 c1 bc
       -0.07911395 0.021108149 0.088701926 -0.023636155
000270 d5 cf 9f bc a5 ce 0d be ce 8d e5 bd 87 b0 96 3d
       -0.019508282 -0.1384836 -0.11208688 0.07357889
000280 f7 51 cb 3d 33 39 05 3e 6a 26 1f 3e 2e 14 08 3e
       0.09927743 0.13010101 0.15541998 0.13288948
000290 ea 1f 38 3d 1d f7 06 3e 6c 5b 17 bd 78 92 20 be
       0.04495231 0.13180204 -0.03695242 -0.15680873
0002a0 0f 43 ab bd 29 f5 91 3d 5b 26 25 3e 46 e6 8c be
       -0.083624 0.07126839 0.16127913 -0.27519435
0002b0 80 04 be bd b8 84 37 be be 16 a9 3d 6e 71 9e bc
       -0.09278202 -0.17921722 0.08256291 -0.019341197
0002c0 88 f1 3d be 1f e3 ce bd 24 b1 b2 3d 0d b9 69 3c
       -0.18549168 -0.10101914 0.08725193 0.014265311
0002d0 e9 53 3f bb 82 9e 23 3e 1f af 24 3e c9 c7 35 bd
       -0.0029194301 0.15978435 0.16082428 -0.044379983
0002e0 bd 18 9c 3d bc 43 f1 3d b3 c7 32 3e 44 8c 6a be
       0.07621906 0.117804974 0.17458992 -0.2290507
0002f0 62 e1 fd bd f2 29 d8 bd b9 78 8c 3c b0 b8 cd bd
       -0.12396504 -0.105548754 0.017147409 -0.10044992
000300 73 a8 1a 3d ca 8e 03 be ce 68 ad 3b 58 5b b5 3d
       0.037758302 -0.12847438 0.0052920347 0.08855313
000310 8a df 8b bd 6f 0f 1b bd c7 b0 dd bd d2 ab 7a bc
       -0.06829746 -0.037856515 -0.10824733 -0.015299754
000320 c6 c3 68 bd 71 60 65 bd a6 3c 5d be 58 c5 4a be
       -0.05682733 -0.056000177 -0.21605167 -0.19801843
000330 0c 76 a1 bd 99 c7 ec 3d 2c 66 c2 bd 38 33 10 3e
       -0.07883844 0.11561508 -0.09492144 0.14082038
000340 6b 46 2d be 2d 60 bd 3c 44 bc 41 bd f8 15 ca bd
       -0.16921394 0.02311715 -0.047298685 -0.098674715
000350 af e2 98 3d d8 7a 98 bd 8f b1 f6 3d 64 76 ec 3d
       0.074651115 -0.074453056 0.12045585 0.11546019
000360 36 6f 11 be b2 c9 60 3d 5e f3 98 bb 19 89 f8 bd
       -0.1420258 0.05487985 -0.0046676835 -0.12135524
000370 38 eb be 3c 86 95 30 bc 10 14 5d bd 0c 2f d2 3d
       0.02330552 -0.010777837 -0.05397421 0.1026288
000380 7f 52 d1 ba 77 4d 0b 3e cd 39 56 3d 37 e4 d8 bd
       -0.001597002 0.13603769 0.052301217 -0.105904035
000390 50 af c6 3c a7 4b 37 be 8b 1f ea bd 1c 25 97 bc
       0.024253517 -0.17899953 -0.114317976 -0.018450312
0003a0 fa de 85 3d 0d 1f 68 3d 13 1c fe 3c 86 97 83 bd
       0.0653667 0.056670237 0.031019246 -0.06425385
0003b0 31 76 31 bd 14 eb be 3d 43 c2 b4 bd 9e de c8 bd
       -0.043325607 0.09322181 -0.08826115 -0.09808086
0003c0 6e 62 bd 3c c7 93 e2 bd 31 1a 35 bb 3b 19 e3 bc
       0.023118224 -0.110633425 -0.002763402 -0.027721992
0003d0 2b f8 2c be 08 7f 8a 3c 47 43 94 3d 3f c6 0a 3e
       -0.16891544 0.016906276 0.07239395 0.13552187
0003e0 d6 db 01 be 36 22 b7 3c 95 9f e2 bd 61 43 c6 bd
       -0.12681517 0.02235518 -0.11065594 -0.0968082
0003f0 93 d9 ad bd ad 5f 31 be 63 97 ca bd ae 8c f1 bd
       -0.084887646 -0.17321654 -0.09892156 -0.11794411

Variable_2 f4 [64, 3, 3, 32]
000000 71 d1 38 3e 72 f5 50 be d2 47 e7 3d aa b0 fe 3c
       0.18048646 -0.2040613 0.112929955 0.0310901
000010 ad 5b d0 3b be 02 55 bd 44 bc e0 b8 d8 04 52 3d
       0.006358585 -0.05200457 -0.000107162195 0.05127415
000020 00 93 30 3d b8 ff 90 bd ff 62 14 3e 2a 6a 73 3d
       0.04310894 -0.070800245 0.14490889 0.059427418
000030 51 3b 33 3e 63 5f 28 3d db de ba bd ed e2 37 be
       0.17503096 0.041106593 -0.091245376 -0.17957659
000040 46 05 58 bd f1 9d 7f 3c ff 82 d8 3d 14 a6 fa bd
       -0.052739404 0.015601621 0.105718605 -0.12238708
000050 94 f8 b8 3d 45 b8 c8 3d 16 44 00 3e 48 ac 93 3c
       0.090317875 0.098007716 0.12525973 0.018026486
000060 61 aa 2a bd 7e 8c a5 3c bc af 0c 3e 43 dd be 3d
       -0.041666392 0.020208593 0.13738912 0.09319546
000070 3c 17 0c be 76 25 af bd 15 f3 b8 3d 01 37 44 3e
       -0.13680738 -0.08552067 0.09030739 0.19161607
000080 6e 5c 0f bc b1 f9 30 3e ce 5f ea 3d 53 6d aa 3c
       -0.008750064 0.1728275 0.114440545 0.020804083
000090 45 76 06 be c7 d0 a6 bd 53 ff b0 bd 1a e5 23 bd
       -0.13131054 -0.0814529 -0.08642449 -0.04001341
0000a0 f3 a5 81 3d 52 8d ee bd dc 64 8d 3d 0c d0 bd bd
       0.063304804 -0.116480485 0.06904003 -0.092681974
0000b0 80 70 09 3e d0 41 ab 3c de 48 b3 3d 1c 51 c5 bd
       0.13421822 0.020905405 0.08754133 -0.09634611
0000c0 00 b7 00 3d 38 f6 c9 3b 19 91 ce 3d 78 69 e0 3d
       0.031424522 0.0061633848 0.10086269 0.109576166
0000d0 80 c2 c3 3d 15 58 4a bd 6c ee 19 3e e2 d4 d2 bb
       0.09558582 -0.049400408 0.15032357 -0.006434069
0000e0 4e 5f 1d 3d 58 d3 d1 3a 73 bf 4f bd 91 9a 8c 3d
       0.038420968 0.001600842 -0.05071969 0.06865419
0000f0 89 c1 30 3e 62 a7 4d be cd eb 74 3d d8 bc 79 bd
       0.17261328 -0.20083383 0.05979519 -0.06097111
000100 68 b9 6f bd 36 c2 8d 3d c6 7d db 3c e1 d7 69 3d
       -0.058526427 0.069218084 0.026793372 0.057090644
000110 a0 b4 cb bd fc 26 13 3d 68 24 f3 bd 6c 93 9e bc
       -0.09946561 0.03592585 -0.11872178 -0.019357406
000120 b8 1c db bd 31 63 b8 3d d0 49 8d bc 72 fd 3d 3d
       -0.10698837 0.09003294 -0.01724711 0.046384282
000130 52 e6 59 3d cc 5c e1 3c 02 54 be 3c b0 5f 83 bc
       0.053198166 0.02751007 0.023233417 -0.016036838
000140 5c e4 f3 bb 32 8d e8 3d 1e bc f3 3d 3f 38 3e bc
       -0.007442994 0.11355056 0.11901115 -0.01161009
000150 b7 c1 f5 bd 88 c8 04 be 98 dd 60 3d e6 2f 21 3d
       -0.11999839 -0.12967122 0.05489883 0.03935232
000160 9e 7e 13 3d 9b 50 0f 3d 74 98 02 be 73 0c 2d bd
       0.036009423 0.03498898 -0.12753469 -0.0422482
000170 5c 44 a9 3c 03 55 db bd a8 61 c3 bd a7 c4 73 bc
       0.02066248 -0.10709574 -0.09540111 -0.014878429
000180 0e dd 17 bd d4 27 a3 3c 7c 6f 88 bd 92 df 32 bd
       -0.03707605 0.019916452 -0.06661889 -0.043670245
000190 17 2f 85 bd 54 eb e5 bd 8b 77 52 3c 1d d6 9e 3d
       -0.06503122 -0.11226526 0.012845884 0.077556826
0001a0 59 fe 03 3e 9d 94 71 bd 54 0b 92 3d 37 a8 9e 3b
       0.12889995 -0.05897962 0.07131067 0.00484183
0001b0 d8 43 12 3e 59 85 1f be 55 35 9a bd 9c fe 89 3d
       0.14283693 -0.15578212 -0.075297035 0.06738016
0001c0 7f 75 17 be 2b 43 cc bb d9 6a a3 bd 31 32 71 bd
       -0.14790915 -0.006233593 -0.07979364 -0.058885757
0001d0 33 59 70 3c bf 8b aa 3d 1e 41 d0 3d 8c 7c b3 bd
       0.014669704 0.08327436 0.1016867 -0.0876399
0001e0 28 f5 25 be e9 20 c8 3d fc 33 b6 bc 99 19 13 3e
       -0.16206801 0.09771902 -0.022241585 0.14365233
0001f0 02 b0 cc 3d b1 d7 c0 bd 38 3a c0 3a 3b c3 92 3d
       0.09994508 -0.0941614 0.0014665788 0.071661435
000200 14 41 de 3d 55 c4 e5 3b 18 aa e9 3d 36 10 81 3d
       0.108522564 0.00701193 0.11409396 0.0630192
000210 5c 21 d9 bd 63 83 ef 3b de e8 93 bd 73 2e 25 3e
       -0.10602066 0.0073093637 -0.0722215 0.16131
000220 dc d2 6d 3d 42 fa 3a 3e ca d0 56 bd ff 2d 59 bd
       0.05806242 0.18259528 -0.05244521 -0.05302238
000230 b1 d2 3c 3e 83 2e 3c bc 00 41 95 3d 76 8e 5e 3c
       0.18439747 -0.011485699 0.072877884 0.01358377
000240 9e 4b f4 3d 89 e5 8c bd 71 52 ab 3d 6a cc be bc
       0.11928485 -0.06879718 0.08365334 -0.023290832
000250 41 dc 47 3c 46 ab fb bd 86 ae 9a 3c 60 b7 42 3d
       0.012198509 -0.12288527 0.018882047 0.04753816
000260 33 64 ea 3d e2 f6 94 bc 8d ff 98 bc 93 5b 0c 3e
       0.11444893 -0.01818413 -0.018676544 0.13706808
000270 84 45 1d be 3b 43 df 3d c1 c6 a3 bd 0d f2 c1 bb
       -0.1535855 0.10901495 -0.07996894 -0.0059187473
000280 9c c8 1a be 06 7a 20 3e 28 1b 2f be b8 4c ed bc
       -0.15115589 0.15671548 -0.17100203 -0.028967246
000290 fd ea c8 3d fb bd 23 be 2e a1 7e bd 14 f3 0a 3e
       0.098104455 -0.1599044 -0.06216543 0.1356929
0002a0 6f 9a 13 be a3 10 96 3d 98 de ff bd 05 e6 c0 3d
       -0.1441438 0.07327392 -0.12493628 0.09418873
0002b0 f1 64 44 bd fc 51 db bd 41 ad f2 3d 71 cb 9f bd
       -0.047947828 -0.10708997 0.11849452 -0.07802475
0002c0 3a f6 ba bd bf e6 df 3d 4f e0 ef bd 29 ff 9c 3c
       -0.09128995 0.10932683 -0.11712705 0.019164639
0002d0 a9 53 f0 bd 04 4e d8 3c 91 9a 38 3e 4b 8f 13 3b
       -0.11734707 0.026404388 0.18027712 0.002251583
0002e0 cf 3b 57 3c 85 1a 31 be fb db a8 3d 7c 8f 2e 3e
       0.013136818 -0.17295273 0.08245083 0.17046922
0002f0 f5 c1 15 bd fb db 8a bd b4 2c 63 3d a3 63 59 3b
       -0.036561925 -0.06780239 0.055462554 0.003317096
000300 7d 9d 00 3e 27 0d d8 bd c7 7b bf 3b fb d6 cb 3c
       0.12560077 -0.105493836 0.005843613 0.024882784
000310 db bf 59 bd 44 fd ca 3d 5c 4d 71 bd 29 bf 54 bd
       -0.053161483 0.09911588 -0.058911666 -0.051940117
000320 dc b3 3d 3d de 95 50 bd 49 d6 75 3c 8a 9f 1d be
       0.046314105 -0.050924174 0.015004703 -0.1539289
000330 ea 4b 96 3c 01 56 5b bd 55 45 46 3d 95 0a 46 bd
       0.018346746 -0.053548817 0.048405964 -0.048349936
000340 58 cd 76 3d 65 cb 07 3d 4d f2 24 be 38 1c de 3d
       0.060254425 0.033152957 -0.16108055 0.10845226
000350 5b 4d 97 bd 3c f9 27 be cb ce 8a bc b0 4c f4 bd
       -0.07387801 -0.16403669 -0.01694431 -0.119286895
000360 87 51 f7 3a e0 cb 9e bd e2 3f 2d 3d 29 e7 8c 3d
       0.0018868902 -0.0775373 0.04229725 0.06880028
000370 4c d0 04 3d 14 cc c4 3d 72 2e 2e be 8a 9d 7d bb
       0.03242521 0.09609237 -0.17009905 -0.0038698637
000380 d5 a9 11 be 47 90 22 bd 78 00 19 3e 10 34 b3 bd
       -0.14224942 -0.039688375 0.14941585 -0.087501645
000390 f7 ab f9 3d c0 97 57 bd 52 f4 f2 3d 53 11 1d 3e
       0.12191003 -0.052634954 0.11863007 0.1533864
0003a0 3c d2 db bd 28 7d 25 be ba 0d 30 be be ed 15 3e
       -0.107334584 -0.16161025 -0.17192736 0.14641473
0003b0 c4 e7 f0 3d 1d b1 9e bc 0f 9a c2 bb 6d 0f 02 3e
       0.11762956 -0.019371564 -0.0059387754 0.12701197
0003c0 40 82 b3 bd 6f 61 48 be 9b fc 39 3e 03 22 42 be
       -0.087650776 -0.19568418 0.18162768 -0.18958287
0003d0 dc c7 9f bd f5 b6 5f 3b 98 fb 9a 3c 76 70 42 bc
       -0.07801792 0.003413615 0.018918797 -0.011867633
0003e0 06 7a 70 bd a3 72 52 bd 28 45 0a 3d a8 2a 0f 3e
       -0.05871012 -0.051378857 0.03375736 0.13981116
0003f0 a5 33 e5 bc 6b 9a 3e 3e 45 96 52 3d 73 e2 a0 3c
       -0.027978728 0.18613593 0.05141284 0.01963923

Variable_4 f4 [64, 3, 3, 64]
000000 5c e3 76 3d 0a 8f c3 39 ef c9 20 bd ab a4 f7 bc
       0.06027542 0.0003729987 -0.03925508 -0.030229887
000010 c4 95 cf b9 99 c2 08 be 88 6f 95 3d 9e 29 84 bd
       -0.000395937 -0.13355483 0.072966635 -0.0645325
000020 c8 78 c1 bd 0c 95 7f bd 3b 47 dd bd 75 f3 6d 3d
       -0.09446865 -0.062398 -0.10804602 0.058093507
000030 4f 3a 6b bd c8 92 bb bc c6 e6 34 3e 35 bd ae 3d
       -0.057428654 -0.02289714 0.17666158 0.08532182
000040 f5 f3 04 3d 3e 67 15 bd 25 39 36 be 37 4a 6c 3d
       0.032459218 -0.036475413 -0.17795236 0.057687964
000050 f2 20 10 be 9d 7e 9d 3d d4 d2 0e bd 51 0f d7 3d
       -0.14075068 0.07690165 -0.03486903 0.10500968
000060 ff 3e 82 bd 51 6e 2e be 8e 40 f4 bd ce a3 03 be
       -0.06359672 -0.1703427 -0.11926375 -0.12855455
000070 6f 1d d1 bc 2a 75 64 bc 89 1c d8 bd b9 f1 33 be
       -0.02552673 -0.01394395 -0.10552318 -0.17572679
000080 d5 02 8d bd 84 35 79 bd 4b 28 1e 3d de 37 d8 3d
       -0.06885306 -0.060842052 0.038612645 0.10557531
000090 15 42 2e 3c 4c 6f 0d be d6 6b a3 3d 10 77 b1 3d
       0.010635872 -0.13811988 0.079795524 0.086652875
0000a0 d4 70 09 3c 04 f4 04 bd a3 31 83 bd 35 47 bf 3d
       0.008388717 -0.032459274 -0.06405952 0.093397535
0000b0 66 f6 1c 3d b2 d8 e7 bd 3b 6d f0 3b 54 01 32 be
       0.03832092 -0.11320628 0.00733724 -0.17383319
0000c0 d6 86 1c 3e 59 74 2c 3e bb 95 cd bd b7 22 7b bd
       0.15285811 0.16841258 -0.100383244 -0.061312404
0000d0 0a 22 50 be aa 9a 35 be 6a 85 b6 3d 63 21 ab 3c
       -0.20325485 -0.17734781 0.089121655 0.020889943
0000e0 e4 75 14 bd 8d a1 20 be ab 1f fc 3d 9f af 90 3d
       -0.03624524 -0.15686627 0.12310728 0.07064747
0000f0 21 b7 bf bd 48 77 0b 3e 5e 99 7a bd d7 1c 41 bd
       -0.09361101 0.13619721 -0.06118142 -0.047146644
000100 61 36 22 bd 79 a9 c2 3d 9c bd c8 3c 01 41 f4 3d
       -0.03960264 0.095049806 0.024504475 0.11926461
000110 2c b3 fb 3d c5 5d f7 3d 01 2c 83 3d ec 1e fb bd
       0.12290034 0.12078432 0.064048775 -0.12261757
000120 00 3e 03 3e 34 6f c5 3b 3a ea fd bd 9b 4d 9c 3d
       0.1281662 0.0060252193 -0.12398191 0.076319896
000130 7c 6e 89 3d c1 ca 83 bd 78 92 ad bd 32 c0 be bd
       0.06710526 -0.064351566 -0.08475202 -0.09314002
000140 65 78 e5 bd 63 5d d6 3c 90 15 07 bd 87 8d 43 bd
       -0.11204604 0.026167577 -0.032979548 -0.047742393
000150 cb 25 86 bd 99 06 14 be d1 40 b6 bd 02 82 69 3b
       -0.06550177 -0.14455642 -0.088990815 0.003563047
000160 51 bf 93 bd 05 1c 41 be 4c fb 92 bd aa f8 cc 3d
       -0.07214225 -0.18858345 -0.07176837 0.100083664
000170 86 ce cd 3c 45 8b 42 3d ce 55 83 3b 0a 62 8a 3d
       0.025122892 0.0474961 0.0040080315 0.06756981
000180 20 83 51 bd 00 d4 ce 3d 25 21 be bd 57 85 af bd
       -0.05115044 0.100990295 -0.092836656 -0.085703544
000190 4a c1 00 bd 38 5f 79 bd df e6 ae bc b6 68 0f 3e
       -0.031434335 -0.060881823 -0.021350322 0.14004788
0001a0 cc 16 02 3d a9 04 37 be 2a 01 17 3e dc 73 0c 3e
       0.031760022 -0.17872871 0.14746538 0.13716072
0001b0 b3 a0 93 bd 1c c8 f4 bd 68 b8 c7 bc 2d df 37 3e
       -0.07208385 -0.1195223 -0.024379924 0.17956229
0001c0 3f 32 22 bd 30 f1 0c be 6b b8 93 bd ca 86 22 bd
       -0.0395987 -0.1376388 -0.07212909 -0.039679326
0001d0 26 30 e3 bc 53 ac 97 bb d2 07 c8 bd 7d a6 ce 3d
       -0.02773292 -0.004628697 -0.097671166 0.10090349
0001e0 8a 7b 83 3c ff ef aa bd 41 be 00 3e de e5 8e bb
       0.016050119 -0.08346557 0.12572576 -0.0043608984
0001f0 c8 6f 29 3e 3c fe 21 bd 70 f2 66 3e ce d8 05 3d
       0.16546547 -0.039549097 0.2255342 0.032677464
000200 2c 30 ad bd 5f 88 33 bd 92 d4 81 bd 30 5a 04 bd
       -0.08456454 -0.043831225 -0.06339373 -0.032312572
000210 0a 95 e2 bc ed 55 6a bd 6b 02 ee bd d7 76 65 3d
       -0.027658958 -0.05721085 -0.11621555 0.056021538
000220 9d d4 67 3d c6 41 27 3e 6b d0 f7 bc 8d 20 d8 3c
       0.05659925 0.16333684 -0.030250749 0.026382709
000230 03 f3 b6 3c f9 a4 c8 3d e9 eb 15 bd a1 58 98 3d
       0.022332674 0.09797091 -0.036601935 0.074387796
000240 07 d9 0e 3e d4 5a 0e be 2d 57 ab bd 51 b1 27 bd
       0.13949977 -0.13901836 -0.08366237 -0.040940586
000250 1f ef ff bc 1a 3e 13 3e 94 a2 16 3e 4d 5d b4 3d
       -0.031241952 0.14379159 0.14710456 0.08806858
000260 03 89 39 be 4a 6f cc 3c fc 80 8f 3d ef 17 ed bd
       -0.18118672 0.02495541 0.07007024 -0.115768306
000270 f5 7a 12 3d 60 8d ed bd 89 f2 13 be c2 47 a3 bd
       0.035761792 -0.11599231 -0.14447989 -0.07972671
000280 93 de e6 3d a8 0f 46 3d 7e 57 43 3e 10 68 9e 3d
       0.112729214 0.048354775 0.19076344 0.07734692
000290 fb f0 06 3e 45 3a 35 3c 35 c0 c6 bd f3 5d 54 bd
       0.13177864 0.011061256 -0.09704629 -0.05184741
0002a0 d9 bc ec bd c7 6f 6b bd 77 ae 7c bc 7e 1d b5 bd
       -0.11559457 -0.057479646 -0.015422455 -0.08843516
0002b0 0a 12 18 3e 82 5c 89 ba f2 df 22 bb 31 fb a4 bd
       0.14850631 -0.001047984 -0.002485272 -0.080557235
0002c0 61 6c 13 3d 0b b0 7a bc b6 30 e1 3c f1 82 9c bd
       0.03599203 -0.015300761 0.027489047 -0.076421626
0002d0 a4 8f 1e be 5f 9f ae 3b 34 7c 9a 3d c4 30 20 be
       -0.15484482 0.005329057 0.07543221 -0.15643603
0002e0 c3 60 b3 3d 52 3f 3b bd 95 24 6c bd 50 80 92 3c
       0.0875869 -0.045714684 -0.057652075 0.01788345
0002f0 eb 72 e0 3d 88 72 09 bd db f7 00 bd 91 3f 8c bc
       0.10959419 -0.03355649 -0.031486373 -0.017120155
000300 58 35 da 3d c4 e2 8a bc 52 1d 0f 3e 42 26 7c bd
       0.10654706 -0.016953833 0.13976029 -0.061559923
000310 f6 39 57 3c 70 df f1 3d 53 fb 54 bd 56 9e 11 3d
       0.013136378 0.118101954 -0.051997494 0.03555139
000320 50 de 3f ba 29 39 ea 3d a7 ec fe bd 5f 52 16 be
       -0.0007319199 0.11436684 -0.124474816 -0.1467986
000330 ae 13 48 bd 49 4d ad bd 0a 2f 33 3c 08 6a 44 3d
       -0.048846893 -0.084620066 0.010936508 0.04795268
000340 3f f3 32 bc 96 18 a5 bd ad e2 ae bd 47 92 15 be
       -0.010922252 -0.0806133 -0.08539329 -0.14606582
000350 cb 06 5b bd a8 1b 03 3e ff 60 97 bd a9 7d 40 be
       -0.053473275 0.12803519 -0.073915474 -0.18797936
000360 f4 0f e8 3d aa 30 09 bd f7 1e 00 3e 32 9b 3a be
       0.11331168 -0.033493675 0.12511812 -0.18223265
000370 23 b0 f5 bd 12 f2 ca 3d d4 85 bc bc 66 63 ae bd
       -0.11996486 0.099094525 -0.023013033 -0.085150525
000380 40 a4 af 3d 82 af d3 3d 8f 77 37 be a1 4e 45 be
       0.0857625 0.1033621 -0.17916702 -0.19268276
000390 f8 44 79 3b 17 b3 89 3c 0a e0 c2 3d 12 0d 15 3b
       0.0038035493 0.01680903 0.09515388 0.0022743386
0003a0 a8 93 39 3e bd 83 04 3c da 91 bb 3d 54 f8 4c be
       0.18122733 0.0080880495 0.09158678 -0.20016605
0003b0 31 23 15 bd 3a 65 89 bd 56 ad 4f bd 14 7e 45 3d
       -0.036410514 -0.067087606 -0.050702415 0.04821594
0003c0 ac 55 22 bd d8 82 6a 3d ce 7d 8c 3d 22 cf bf bc
       -0.039632484 0.05725369 0.06859933 -0.023414198
0003d0 4d 51 2b 3d d0 cb 02 3e 7c 88 9e bd 90 18 21 be
       0.04182558 0.12773061 -0.07740876 -0.15732026
0003e0 ae 01 29 bd c7 1d 3a 3d 95 1d 4c bd b0 34 fb 3d
       -0.041261367 0.045438554 -0.0498329 0.12265909
0003f0 9b a5 b6 3c 83 b4 f5 bd de 0d 40 be 08 1b d8 3d
       0.022295764 -0.119973205 -0.1875529 0.10552031
